assignment2/part1/exercise1.1/net_model_wts.pth (torch, 855432 bytes, 8 tensors)

conv1.weight f4 [32, 3, 3, 3]
0	0x3d9c5374	0.07633105
1	0xbd6bc56e	-0.05756133
2	0x3c015fda	0.007896388
3	0x3dfce27b	0.12347885
4	0x3e33cce6	0.17558631
5	0x3e3714b2	0.17878988
6	0xbd9251ff	-0.07144546
7	0x3e418d14	0.18901473
8	0xbce88aeb	-0.028386554
9	0xbcf0983a	-0.029369462
10	0x3e352c9a	0.17692795
11	0x3d09a6f2	0.033606477
12	0xbe0b19e9	-0.13584103
13	0xbdda0f02	-0.10647394
14	0x3c1eb286	0.009686118
15	0xbb89b7e6	-0.0042028306
16	0x3c37184a	0.011175225
17	0xbd603ab1	-0.054743472
18	0xbca0fb45	-0.019651065
19	0x3d4a4882	0.049385555
20	0x3d95b915	0.07310692
21	0x3df72674	0.12067881
22	0x3e1e0a00	0.15433502
23	0x3db1fb5c	0.08690521
24	0xbca3a11d	-0.019974286
25	0xbe24595b	-0.16049711
26	0x3e214a64	0.15751034
27	0x3e140307	0.1445428
28	0x3e5b8dc3	0.21440797
29	0x3d93937c	0.07205865
30	0x3daeb58e	0.085307226
31	0x3dcdf627	0.100567155
32	0x3e3a8abe	0.18216988
33	0x3e20716f	0.15668271
34	0x3df88f71	0.12136734
35	0xbaba5a42	-0.0014217573
36	0xbd8d549f	-0.06900906
37	0x3d74838f	0.059695777
38	0x3e17601f	0.14782761
39	0x3cc3d815	0.023906747
40	0x3e470679	0.19436063
41	0xbdcd7714	-0.10032478
42	0x3e089ee7	0.13341866
43	0x3d8afc6b	0.06786426
44	0xbdd1dd70	-0.10247314
45	0x3db06b20	0.086141825
46	0xbdde1679	-0.1084413
47	0x3e048210	0.1294024
48	0x3dd2d8b5	0.1029524
49	0xbe2b9a26	-0.16758022
50	0x3dc5e0c4	0.09662011
51	0x3cf53335	0.029931644
52	0x3db87d8c	0.09008321
53	0x3db9775d	0.0905597
54	0xbce0da21	-0.027447762
55	0xbd95ffb0	-0.07324159
56	0xbd1f5dde	-0.038907878
57	0xbd87c423	-0.06629207
58	0xbe2c09a8	-0.16800559
59	0x3d90b9a8	0.07066661
60	0xbda75323	-0.08170154
61	0x3d3de8d8	0.046364635
62	0xbd4532d2	-0.04814417
63	0x3e087835	0.13327105
64	0x3c5553a3	0.013020429
65	0xbe323fb5	-0.17407115
66	0xbb1d6c9d	-0.0024021037
67	0xbcf3748c	-0.02971866
68	0xbdcb65e2	-0.09931542
69	0x3e22b0ad	0.15887709
70	0x3d04a904	0.03238775
71	0xbd729029	-0.059219513
72	0xbe3d84b1	-0.18507649
73	0x3e2efc2c	0.17088383
74	0xbe126554	-0.14296466
75	0x3c8f59fd	0.017498964
76	0x3debf2e5	0.11520938
77	0xbe236a44	-0.15958506
78	0x3d7d891e	0.061898343
79	0x3e37b813	0.17941312
80	0xbd9b8f3d	-0.0759568
81	0xbd818890	-0.06324875
82	0xbe2db4ba	-0.16963473
83	0xbe3ec275	-0.18628867
84	0xbd483c0f	-0.0488854
85	0x3e16743f	0.14692782
86	0x3b98744c	0.0046525355
87	0xbe0acc36	-0.13554463
88	0x3e044379	0.12916364
89	0x3ce0c1ae	0.027436104
90	0x3e36f1fe	0.1786575
91	0xbe3b3e7b	-0.18285553
92	0xbe2f1229	-0.17096771
93	0x3cc50cb4	0.024053909
94	0xbe186dc6	-0.14885625
95	0xbe24f2f1	-0.161083
96	0x3e0bcc5f	0.1365218
97	0xbe1e2162	-0.15442422
98	0xbe1998a0	-0.14999628
99	0x3d5ee560	0.054417968
100	0x3d78e8bb	0.060768824
101	0x3e34ae84	0.17644697
102	0xbd733821	-0.0593797
103	0x3c975d4d	0.018477106
104	0xbdeacb5f	-0.11464571
105	0x3d29a353	0.041415524
106	0x3cffe65a	0.03123777
107	0xbdad2b1e	-0.084554896
108	0x3e22c4bf	0.15895365
109	0x3bab3aef	0.0052255313
110	0xbccfefa0	-0.025382817
111	0xbd2c8443	-0.042118322
112	0xbc9d91f9	-0.019234644
113	0xbc55d6cd	-0.013051701
114	0x3d89a387	0.067206435
115	0x3e1ceb69	0.15324177
116	0x3cb1b87a	0.02169441
117	0x3e3ad59e	0.18245551
118	0xbd2bb8f1	-0.04192442
119	0x3dbf802e	0.0935062
120	0xbe25123b	-0.16120236
121	0x3ddf3b64	0.109
122	0x3d7b6761	0.061377887
123	0x3dace7ac	0.084426254
124	0xbe0cb56b	-0.1374108
125	0x3e2c2355	0.16810353
126	0xbd9e30be	-0.077241406
127	0xbc06cd78	-0.0082276985
128	0x3dfa9037	0.12234538
129	0xbe332c03	-0.17497258
130	0x3e080e97	0.13286816
131	0xbdcddaf1	-0.100515254
132	0xbe341f79	-0.17590131
133	0xbdcad0ad	-0.09903083
134	0xbe1767d6	-0.14785704
135	0x3e38ee29	0.18059601
136	0x3e0719fa	0.13193503
137	0xbdbf4274	-0.09338847
138	0x3dd9f2fa	0.10642047
139	0x3df42344	0.11920789
140	0x3d298b45	0.041392583
141	0x3e074986	0.1321164
142	0xbe04c726	-0.12966594
143	0x3e299e6d	0.16564341
144	0x3e213f32	0.15746763
145	0x3cd72a45	0.026265273
146	0x3b2297ec	0.002480979
147	0xbbf5f596	-0.0075060828
148	0x3c1c6d1e	0.0095475
149	0xbdbeb846	-0.09312491
150	0x3da3ea8d	0.080037214
151	0x3d6c35be	0.05766844
152	0x3c11f293	0.008907932
153	0x3e3e8087	0.18603717
154	0xbc07b950	-0.008283928
155	0xbe1770a8	-0.14789069
156	0x3c9a4ac6	0.018834483
157	0xbe1f7a66	-0.15574035
158	0xbe1cd80c	-0.1531679
159	0xbda2c6d4	-0.0794808
160	0xbe19be68	-0.1501404
161	0xbe14f08f	-0.14544891
162	0xbcca479b	-0.024692347
163	0x3d09d0a5	0.033646245
164	0x3c03bbab	0.008040349
165	0x3d3dc030	0.046325862
166	0x3cdec77e	0.027194735
167	0x3e329f1d	0.1744351
168	0x3d1c249e	0.03812086
169	0x3ceec0f3	0.02914474
170	0x3ccccc2a	0.024999697
171	0x3cbfb8b2	0.0234035
172	0xbc14528e	-0.009052886
173	0xbbcce529	-0.006252904
174	0x3e3da58b	0.18520181
175	0x3c4a9484	0.01236451
176	0x3e2ba609	0.16762556
177	0x3dcdf106	0.10055737
178	0x3e511dd2	0.20421532
179	0x3e3b568f	0.18294738
180	0xbe0db799	-0.13839568
181	0xbe086c34	-0.13322526
182	0xbe28e6e8	-0.16494334
183	0xbe2dbd82	-0.16966823
184	0xbd35b129	-0.044358406
185	0xbdea6768	-0.114455044
186	0x3d1087e1	0.035285834
187	0xbde29e01	-0.11065293
188	0x3df289ce	0.118426904
189	0x3e537973	0.20651798
190	0x3dd05f74	0.10174456
191	0x3d977602	0.07395555
192	0xbe24d41b	-0.16096537
193	0xbdf2ca90	-0.11855042
194	0xbcdb8f7f	-0.026801823
195	0x3ddcee06	0.10787587
196	0x3d3bbb32	0.04583282
197	0x3d90fd21	0.070795305
198	0xbe1dac1d	-0.15397687
199	0x3e1af157	0.15131126
200	0xbdfb8753	-0.122816704
201	0x3dc98ffe	0.098419175
202	0x3e0b39fc	0.13596338
203	0x3ba8517d	0.0051366673
204	0x3e038cdc	0.12846702
205	0x3dc0e7ba	0.09419198
206	0x3aa9a205	0.0012941962
207	0xbe38e246	-0.18055066
208	0xbdf1499b	-0.11781617
209	0xbc0f5b72	-0.00874983
210	0x3def2135	0.116762556
211	0x3d6636be	0.05620455
212	0xbc75325b	-0.014965619
213	0xbdbfa046	-0.093567416
214	0x3de2e6ed	0.11079202
215	0x3cb7f195	0.022454062
216	0x3e0e79f2	0.13913706
217	0x3d989ccc	0.07451782
218	0xbcc47da9	-0.0239857
219	0x3e2eeb7a	0.17082015
220	0xbd3b1e3f	-0.04568314
221	0xbe39d621	-0.1814809
222	0x3d931f64	0.07183722
223	0xbde5abef	-0.11214434
224	0xbdcea30c	-0.100896925
225	0xbe3a80d1	-0.18213202
226	0xbe2142b8	-0.15748107
227	0xbcf07488	-0.029352441
228	0xbdd623e6	-0.10456066
229	0x3d918df2	0.07107152
230	0xbdedd79f	-0.11613392
231	0x3e378a6d	0.17923899
232	0x3e3b4b29	0.1829039
233	0xbc7e4ca3	-0.015521201
234	0x39938de9	0.00028143756
235	0x3d4e2d04	0.0503359
236	0xbc33031f	-0.010926037
237	0xbe363e3d	-0.1779718
238	0xbe07f71c	-0.13277858
239	0xbd95875f	-0.073012106
240	0x3db6c35d	0.08923981
241	0x3c7b26a2	0.015329035
242	0xbe25aec4	-0.16179949
243	0xbe06d3a5	-0.13166673
244	0x3e35ed1a	0.17766228
245	0x3e279d48	0.16368592
246	0xbe1fb14b	-0.15594976
247	0x3e2d4460	0.16920614
248	0xbce682a6	-0.02813847
249	0x3d22c1cd	0.039735604
250	0x38c72a66	9.496957e-05
251	0x3dc4b396	0.09604566
252	0x3e183091	0.14862277
253	0x3de9e73c	0.114210576
254	0xbd80a9f0	-0.06282413
255	0xbd07d381	-0.03316069

conv2.weight f4 [32, 32, 3, 3]
0	0xbd105263	-0.03523482
1	0x3d3414b0	0.04396504
2	0x3d1fee04	0.03904535
3	0x3d1a3d10	0.03765589
4	0xbc68e005	-0.014213567
5	0x3ca28dca	0.019843
6	0x3c0e10df	0.008671015
7	0x3d332294	0.04373415
8	0x3d0ad9ea	0.033899225
9	0x3ca65075	0.020302037
10	0xbcb65785	-0.02225853
11	0xbc9ca548	-0.019121781
12	0x3d1f8e53	0.03895409
13	0xbc344466	-0.011002636
14	0x3d34faab	0.044184368
15	0xbbf25488	-0.007395331
16	0xbd10792d	-0.035271812
17	0x3cf54dc1	0.029944303
18	0x3d4ef162	0.05052317
19	0xbc67ba8f	-0.0141436
20	0x3d0dce58	0.034620613
21	0xbd4b12b6	-0.04957839
22	0xbc8e2a34	-0.017354108
23	0xbcf2ec23	-0.029653614
24	0xbbd6e87b	-0.0065584756
25	0x3d38e109	0.045136485
26	0xbd60644d	-0.054783154
27	0x3d6a2c54	0.05717118
28	0x3be97966	0.0071250675
29	0xbd1e0aa8	-0.03858438
30	0xbcfb0d9c	-0.030646138
31	0x3c857330	0.016290277
32	0x3d23054d	0.039799977
33	0x3c3af66b	0.01141129
34	0xbd0663a0	-0.032809854
35	0xbce2ceeb	-0.027686557
36	0x3d4ad7ce	0.049522214
37	0x3d3bce21	0.045850877
38	0x3d43da7f	0.047815796
39	0x3d506e25	0.050886292
40	0x3b68050d	0.00354034
41	0x3d3b489f	0.045723554
42	0x3cb94483	0.022615677
43	0xbc30c6b4	-0.010789562
44	0xbc990f66	-0.0186841
45	0xbd38f2ec	-0.045153543
46	0xbcc06ad5	-0.023488441
47	0x3c03718d	0.008022678
48	0xbca76146	-0.020432126
49	0xbaacaf4b	-0.00131748
50	0x3cf5a0ef	0.029983966
51	0x3ca965d5	0.02067844
52	0x3d0ca496	0.03433665
53	0xbd5fca6e	-0.05463641
54	0x3ba646d4	0.0050743613
55	0x3d1b4761	0.03790987
56	0xbd016c37	-0.031597342
57	0x3b52adf7	0.0032147148
58	0xbd3d2fc4	-0.04618813
59	0x3d4d6258	0.050142616
60	0xbd4e75d4	-0.05040534
61	0x3c99a5c0	0.018755794
62	0xbd26d6a8	-0.040732056
63	0xbbdf2a9f	-0.0068105008
64	0x3d28493e	0.041085474
65	0xbd16f2a7	-0.036852505
66	0xbd2ebcfb	-0.042660695
67	0x39e56f6a	0.00043761294
68	0xbcfd0fdb	-0.03089135
69	0x3d232381	0.03982878
70	0xbd4c6120	-0.049897313
71	0xbd0e23bc	-0.034702048
72	0x3d61dcdc	0.05514227
73	0x3b4984c6	0.0030749305
74	0x3d577425	0.052601
75	0xbd2fd841	-0.042930845
76	0xbcb245a5	-0.021761725
77	0xbcdb986e	-0.026806083
78	0x3ce4c203	0.027924543
79	0xbd673156	-0.056443535
80	0xbce9892e	-0.028507795
81	0x3cae8a78	0.021306261
82	0x3d43753a	0.047719218
83	0x3d015ae7	0.03158083
84	0xbc5b523e	-0.013386307
85	0x3cf6e685	0.030139217
86	0x3cd057be	0.025432464
87	0x3961914d	0.00021511801
88	0x3cd3fb3f	0.02587664
89	0xbd492ad4	-0.04911311
90	0xbb3c054b	-0.0028689678
91	0xbc018490	-0.0079051405
92	0xbd404ce0	-0.046948314
93	0x3d05a9d2	0.032632656
94	0xbc3278e7	-0.010893083
95	0xbcd3bd16	-0.025847
96	0x3cb5c1c8	0.022187129
97	0xbd111727	-0.03542247
98	0xbcb0e7e2	-0.021594945
99	0x3cb7ab7d	0.02242064
100	0x3d3ec404	0.046573654
101	0xbd674f75	-0.05647226
102	0xbada8b0c	-0.0016673519
103	0x3c815e77	0.015792115
104	0x3d4129dd	0.047159065
105	0xbd1ea8ba	-0.03873513
106	0x3c89596f	0.016766278
107	0xbcfcb0e6	-0.03084607
108	0xbcde2fa8	-0.027122334
109	0xbc2ce097	-0.010551593
110	0xbd5e64bf	-0.054295298
111	0xbcaf777d	-0.021419281
112	0xbb727b4c	-0.003699976
113	0xbcd23c02	-0.02566338
114	0x3bcc75fd	0.0062396512
115	0x3c0d1ed1	0.008613304
116	0xbd2ef256	-0.04271158
117	0xbd1152c4	-0.035479322
118	0x3d402253	0.046907734
119	0xbce4ad99	-0.027914809
120	0xbc0e5f03	-0.008689645
121	0x3c84f8ae	0.016231861
122	0x3ccd22ee	0.02504107
123	0x3b0837fe	0.0020785327
124	0xbcecfafa	-0.028928269
125	0x3c9abba3	0.0188883
126	0xbc3a310b	-0.011364232
127	0xbcf69cd6	-0.030104082
128	0xbc742bdf	-0.014903038
129	0x3c448158	0.011993729
130	0xbd54fc2a	-0.051998295
131	0xbb6b8f2b	-0.003594349
132	0x3d3b1a7e	0.04567956
133	0x3d0460b5	0.03231879
134	0x3d5c04ab	0.05371539
135	0x3d19c644	0.037542596
136	0x3d6540ae	0.055969886
137	0x3c92f11c	0.017937236
138	0x3c597707	0.013273007
139	0x3d4b2ac3	0.049601328
140	0xbbeeca8d	-0.0072873295
141	0xbc302ee1	-0.010753364
142	0xbd5c6ecb	-0.053816598
143	0xbd458aa0	-0.048227906
144	0xbd3244ab	-0.043522518
145	0xbbdc8f02	-0.006730915
146	0xbb4fb07a	-0.0031690882
147	0x3d39ac6d	0.045330454
148	0x3c6e1a39	0.014532619
149	0xbd498598	-0.04919967
150	0x3d186f3e	0.037215464
151	0xbd44d076	-0.048050366
152	0xbcd3d9fa	-0.025860775
153	0x3d2762e0	0.04086578
154	0xbd62067e	-0.055181973
155	0x3d56387d	0.052299965
156	0xbd33507e	-0.043777935
157	0xbcb39b56	-0.021924656
158	0xbd0f93ed	-0.035053182
159	0x3ba047d4	0.004891375
160	0xbd185ec7	-0.03719976
161	0x3b80ef52	0.003934779
162	0x3d3c8031	0.04602069
163	0xbc93a804	-0.018024452
164	0xba09a095	-0.0005250064
165	0xbcd10705	-0.025516042
166	0x3b663e8b	0.0035132493
167	0xbd277e17	-0.040891733
168	0xbaa65a25	-0.001269166
169	0x3c8fdbd6	0.01756088
170	0x3bf62f1a	0.007512939
171	0x3d10d742	0.035361536
172	0xbd2366f2	-0.0398931
173	0xbd5904d8	-0.052983135
174	0x3ca275d6	0.01983158
175	0xbd1645f1	-0.036687795
176	0x3b27b56f	0.002559032
177	0x3cd41b45	0.02589191
178	0xbd5d240a	-0.053989448
179	0x3d5172d1	0.051134888
180	0x3d438bde	0.04774081
181	0xbc5fb1ad	-0.013653201
182	0xbcf8ffdc	-0.03039544
183	0x3c92080f	0.017826108
184	0xbd3bcc20	-0.045848966
185	0xbaf30868	-0.0018541934
186	0x3ac47079	0.0014987133
187	0x3c3c793e	0.011503516
188	0xbd0f906a	-0.035049833
189	0x3cb2385e	0.021755394
190	0xbd18d8a7	-0.03731599
191	0x3ce3ae39	0.027793037
192	0x3d0d4247	0.034487035
193	0x3cc94c10	0.024572402
194	0xbb87a018	-0.0041389577
195	0xbd31f31b	-0.043444734
196	0xbd1ddabd	-0.038538683
197	0x3cfb8ecd	0.030707741
198	0x3b88efe7	0.004178989
199	0x3d099151	0.03358585
200	0x3c921e57	0.017836733
201	0xbc4eb49f	-0.012616306
202	0x3cb9e7b0	0.022693485
203	0xbd474da1	-0.048658017
204	0xbbe8bca4	-0.007102566
205	0x3b1167e8	0.0022187177
206	0xbcd03821	-0.02541739
207	0xbc965b0c	-0.018353961
208	0x3c676cb7	0.014125041
209	0xbd25e7d6	-0.0405043
210	0x3cfb2c3c	0.030660741
211	0xbd17f627	-0.037099984
212	0xbd644ae1	-0.055735473
213	0x3cc1bd22	0.023649756
214	0xbbffabce	-0.007802463
215	0xbca70770	-0.020389289
216	0x3a8f9e9c	0.0010957303
217	0xbd5fea6a	-0.054666914
218	0xbc90d03b	-0.017677417
219	0x3cdc89c8	0.026921168
220	0x3d4b4f2e	0.04963606
221	0xbd1786e1	-0.036993865
222	0x3d5e812a	0.0543224
223	0xbcad55dd	-0.021159107
224	0xbd2c8b17	-0.042124834
225	0xbd1c711f	-0.03819382
226	0x3c9295fe	0.017893787
227	0x3d242c92	0.040081568
228	0xbb2206bf	-0.002472326
229	0x3ce6aaff	0.02815771
230	0x3d394de7	0.04524031
231	0xbd0db772	-0.034598775
232	0x3d36c45c	0.044620857
233	0x3c100879	0.008791083
234	0xbd1508cb	-0.03638534
235	0xbc5e39d5	-0.013563593
236	0xbd37ed4c	-0.04490404
237	0xbd668f32	-0.056288905
238	0x3ce9df5d	0.02854889
239	0xbc6c8ecd	-0.014438343
240	0xbd1ff6c0	-0.03905368
241	0xbd4c2f41	-0.049849752
242	0x3cc02fd5	0.023460308
243	0x3bac8381	0.0052647
244	0x3c7a966a	0.015294651
245	0xbcee0609	-0.029055612
246	0xbd6790d5	-0.056534607
247	0xbd2e7dd0	-0.042600453
248	0xbcf726ef	-0.030169932
249	0x3d64bab5	0.05584212
250	0x3d6b699f	0.057473775
251	0x3ceed64e	0.029154923
252	0x3ca6166a	0.02027436
253	0x3c59c777	0.013292185
254	0x3d557809	0.052116428
255	0xbcf83230	-0.030297369

conv3.weight f4 [64, 32, 3, 3]
0	0x3bc3f991	0.0059806784
1	0xbc8c27db	-0.017108848
2	0xbd1dee31	-0.038557235
3	0xbbc43406	-0.005987647
4	0x3d327dda	0.043577053
5	0xbc729340	-0.014805615
6	0xbd476ba7	-0.04868665
7	0xbca63dfc	-0.020293228
8	0x3d1a88b1	0.037728015
9	0xbd1341b4	-0.03595133
10	0xbb4a90d4	-0.0030909078
11	0x3cd71a26	0.026257586
12	0x3d1a3da4	0.03765644
13	0x3a87641d	0.0010329519
14	0xbc1202f5	-0.008911838
15	0x3d25aba3	0.04044689
16	0x3cae2eae	0.021262493
17	0x3c0e9f31	0.008704946
18	0xbd5b3f3a	-0.053527094
19	0xbbc615ae	-0.006045065
20	0x3b9dc1a2	0.0048143426
21	0x3c10cab4	0.008837391
22	0xbc00dbbf	-0.007864892
23	0x3d1df81b	0.03856669
24	0xbd2c2334	-0.04202576
25	0xbd31e111	-0.04342753
26	0x3ba6359e	0.0050723096
27	0x3ca881d1	0.020569714
28	0xbc1ffb65	-0.009764527
29	0x3b7dd5b4	0.0038732113
30	0x3c3a1389	0.011357197
31	0x3cfcbd16	0.030851882
32	0x3cea7290	0.02861908
33	0xbd1e752d	-0.038685966
34	0x3d00d322	0.031451352
35	0xbd149338	-0.03627321
36	0x3d513bb7	0.05108234
37	0xbd52dcfc	-0.05148028
38	0xbb1efc73	-0.0024259358
39	0x3d2e63e5	0.042575736
40	0x3c5f4690	0.013627663
41	0xbb6fe1b9	-0.0036603047
42	0xbd0ee65e	-0.034887664
43	0xbd34624d	-0.04403906
44	0x3d293931	0.041314308
45	0x3c502c8f	0.012705936
46	0xbbb25420	-0.0054421574
47	0x3d6c9009	0.05775455
48	0x3cd73304	0.026269443
49	0xbccc8087	-0.02496363
50	0x3d18d3b3	0.037311267
51	0xbd0ebf64	-0.034850493
52	0x3d63ae74	0.055586293
53	0xbc97c2d1	-0.018525513
54	0x3caeef86	0.021354448
55	0x3c845386	0.016153108
56	0xbd2ea3c0	-0.042636633
57	0x3d6f2c4a	0.058391847
58	0x3d44ce8f	0.048048552
59	0x3d7ea23f	0.06216645
60	0xbc144fc3	-0.00905222
61	0xbd2e51c4	-0.042558447
62	0xbd201ab8	-0.03908798
63	0x3c8c2590	0.017107755
64	0x3b502250	0.0031758733
65	0x3c0443cf	0.008072807
66	0xbd283943	-0.041070234
67	0xbcc7b191	-0.024376662
68	0xbb5f3176	-0.003405658
69	0xbcdd567a	-0.027018774
70	0x3d0efd8c	0.03490977
71	0x3c89e3c2	0.016832236
72	0x3d6242c3	0.05523945
73	0x3d89ee97	0.067349605
74	0xbc21eeff	-0.009883641
75	0x3bd24618	0.006417047
76	0x3d9ad5eb	0.07560333
77	0x3d4accfa	0.049511887
78	0x3d90daa5	0.07072953
79	0x3d779eac	0.060454056
80	0x3da96218	0.08270663
81	0xbc8b9442	-0.017038468
82	0x3cc9d7f0	0.0246391
83	0x3d5ee9c9	0.054422174
84	0xbd0ceadb	-0.034403663
85	0x3c09ba5a	0.008406246
86	0x3d89f5ce	0.06736337
87	0x3ca3e633	0.020007228
88	0xbcf479f0	-0.0298433
89	0x3d109513	0.03529842
90	0xbd121439	-0.035663817
91	0x3c89ba67	0.016812516
92	0xbd1a773b	-0.037711363
93	0xbd540c9d	-0.05176984
94	0xbbe9bcf5	-0.007133121
95	0x3c8c2bba	0.017110694
96	0xbc23f22e	-0.010006471
97	0xbd1d13f2	-0.0383491
98	0x3d08c012	0.033386298
99	0x3d492dd6	0.04911598
100	0x3d1ba960	0.038003325
101	0x3c908e97	0.017646117
102	0xbc9c0328	-0.019044474
103	0xbba6d9fa	-0.005091903
104	0x3c31bf18	0.010848783
105	0xbc99a805	-0.018756876
106	0x3d898d56	0.06716411
107	0xbd3d06d2	-0.046149082
108	0xbb7dc5dd	-0.0038722672
109	0x3d87a57b	0.0662336
110	0xbc319c47	-0.010840482
111	0x3d58dde1	0.052945975
112	0x3d377f48	0.04479912
113	0xbce13433	-0.02749071
114	0xbca4948e	-0.020090368
115	0xbc0b904c	-0.00851829
116	0x3d5123ab	0.051059406
117	0x3d31bc66	0.04339256
118	0x3da3925c	0.079869
119	0x3cd7ae0d	0.026328111
120	0xbcc00cdf	-0.023443637
121	0x3da8c858	0.082413375
122	0x3c5bca25	0.013414894
123	0x3b2dcecc	0.0026520966
124	0x3d5bce8d	0.05366378
125	0x3d6ea337	0.058261123
126	0x3cc2fae4	0.023801275
127	0x3ccd150f	0.025034456
128	0xbd602be4	-0.054729357
129	0xbd593cd5	-0.05303653
130	0x3cb46ee3	0.022025531
131	0x3d558b49	0.052134786
132	0xbbe52f1f	-0.0069941427
133	0xbd16ee0c	-0.036848113
134	0x3c894d1a	0.016760398
135	0x3c50ef8c	0.012752425
136	0x3d2cfe6f	0.042234834
137	0xbce060a7	-0.027389837
138	0x3d0d4269	0.03448716
139	0x3d80ece4	0.06295183
140	0x3d14fe51	0.036375348
141	0x3d89acad	0.067223884
142	0xbd175f1e	-0.036955945
143	0x3bddd176	0.0067693545
144	0xbcd0a10c	-0.025467418
145	0xbcad3361	-0.021142663
146	0x3c29dbdc	0.01036736
147	0x3cbf5c81	0.023359539
148	0xbc6b3ba1	-0.014357478
149	0xbbda3cb8	-0.0066600703
150	0x3bfcb3be	0.0077118566
151	0x3d495cbc	0.049160704
152	0x3cf31dd5	0.029677311
153	0x3d09903c	0.03358482
154	0xbaeaa684	-0.0017902409
155	0x3cf65001	0.030067446
156	0x3c6949ac	0.014238756
157	0xbc46458d	-0.012101543
158	0xbc886ef8	-0.016654477
159	0x3d0b195e	0.03395974
160	0xbc9c5249	-0.019082205
161	0xbb9fe615	-0.004879723
162	0xbc0c99f9	-0.008581632
163	0x3b87b792	0.0041417563
164	0xbbb6d190	-0.005579181
165	0x3d3fa7a3	0.04679073
166	0x3d406833	0.046974372
167	0x3aaca087	0.00131704
168	0xbb639849	-0.003472822
169	0x3c18fdc2	0.009337844
170	0x3b5277c4	0.0032114843
171	0x3b854889	0.0040674848
172	0x3b002ef7	0.0019559243
173	0x3d298ece	0.041395955
174	0x3bfc0e04	0.0076921005
175	0x3c5cce05	0.013476853
176	0xbd2977e9	-0.04137412
177	0x3c749a68	0.014929391
178	0x3ca02944	0.019550927
179	0x3d00e67d	0.03146981
180	0x3d01ab97	0.03165778
181	0xbc9a208f	-0.018814353
182	0x3d51051d	0.051030267
183	0x3d7ee804	0.062232986
184	0x3d17cdd0	0.037061512
185	0x3d87ab37	0.066244535
186	0x3d35e1df	0.04440486
187	0xbc80a0ff	-0.015701769
188	0x3c4d6c59	0.012538039
189	0x3d3e9b5b	0.046534877
190	0x3d0b48f5	0.034005124
191	0x3d179d13	0.037015032
192	0x3cfed783	0.031108623
193	0x3cc9c4dd	0.024630005
194	0x3a93c001	0.0011272432
195	0xbc351cd4	-0.011054236
196	0x3d6f54db	0.058430534
197	0x3c4bbf02	0.0124356765
198	0x3c83d913	0.01609472
199	0xbb98a6ab	-0.0046585402
200	0x3d850475	0.06494991
201	0x3d3a096a	0.045419134
202	0x3c9ca15d	0.019119913
203	0x3d42a2fc	0.047518715
204	0xbb2398fe	-0.0024963017
205	0x3d404c0a	0.046947517
206	0x3d482281	0.04886103
207	0x3c4db8fa	0.012556309
208	0x3bac0356	0.005249421
209	0xbd341fc0	-0.04397559
210	0x3a0963b0	0.000524099
211	0x3d3b716e	0.04576247
212	0xbd0ae683	-0.03391124
213	0x3c2bcae2	0.010485383
214	0xbcbce455	-0.023058096
215	0xbd3e18ef	-0.046410497
216	0x3d1bf2a7	0.03807321
217	0x3d76a688	0.06021741
218	0x3d778bee	0.06043618
219	0x3d5bcd85	0.053662796
220	0xbc2b5df8	-0.010459416
221	0xbd34fd9d	-0.044187177
222	0x3d7eefd9	0.062240455
223	0x3d50c940	0.050973177
224	0x3d03f4ff	0.03221607
225	0xbc265416	-0.010151884
226	0x3c80e5c3	0.015734559
227	0xbcaf92c1	-0.021432282
228	0x3d99cb56	0.075094864
229	0x3cb99f05	0.022658834
230	0x3d5a408d	0.053284217
231	0xbc35ee15	-0.011104126
232	0x3d0a1ab5	0.033716876
233	0xbd19cd5a	-0.037549354
234	0x3ca283ba	0.019838203
235	0xbc8be49e	-0.017076787
236	0xbcb8c661	-0.022555532
237	0x3b2d4eef	0.0026444753
238	0x3dadfc40	0.084953785
239	0x3dade017	0.08490007
240	0x3cd22b03	0.025655275
241	0x3d896f27	0.06710654
242	0x3d3e730f	0.046496447
243	0xbc7d9bdc	-0.015479054
244	0xbb863768	-0.0040959604
245	0x3b88764f	0.004164494
246	0x3cebc8aa	0.028782208
247	0x3d6ed2b9	0.05830643
248	0xbc8a9f08	-0.016921535
249	0xbd1d7902	-0.03844548
250	0xbc96ad55	-0.018393198
251	0xbd0602ea	-0.032717623
252	0x3ccbc989	0.024876373
253	0xbc3bc5e6	-0.011460757
254	0xbafc78b1	-0.0019262043
255	0x3d5cc5f0	0.053899705

conv4.weight f4 [64, 64, 3, 3]
0	0xbc9b3228	-0.018944815
1	0xbd06f199	-0.03294525
2	0xbce2b62d	-0.027674759
3	0xbae87124	-0.0017733914
4	0x3cc6c3f1	0.024263354
5	0x3d1938f5	0.037407834
6	0x3b8e190e	0.004336483
7	0xbcc9478b	-0.024570247
8	0x3cb021b1	0.02150044
9	0xbc21b6bb	-0.0098702265
10	0xbce04eaa	-0.02738126
11	0x3cc914bc	0.02454602
12	0xbb09f813	-0.0021052405
13	0xbc4cfb90	-0.012511149
14	0xbce58e98	-0.028022096
15	0x3cdd1e8b	0.026992103
16	0x3c711dde	0.014716594
17	0xbcf1c741	-0.029513957
18	0x3c83f99c	0.016110234
19	0xbc38f51e	-0.011288909
20	0x3d14ad06	0.03629782
21	0x3d1dc558	0.03851828
22	0xbcf4a44b	-0.029863497
23	0x3d0bd47f	0.0341382
24	0x3c9e5624	0.019328184
25	0xbd25ebe7	-0.040508177
26	0xbcbc168c	-0.02295997
27	0xbc52a749	-0.012857267
28	0xbbfce465	-0.0077176564
29	0x3c523300	0.012829542
30	0xbd210d4c	-0.03931932
31	0x3ce67f47	0.028136862
32	0xbc7999a1	-0.015234382
33	0xbb8fa5b4	-0.004383767
34	0xbcb73fb1	-0.022369238
35	0xbc94e8a2	-0.018177334
36	0xbb6e5805	-0.0036368382
37	0x3d185aaf	0.037195858
38	0x399e18f8	0.00030154712
39	0x3d07a2dc	0.0331143
40	0xbbba4f57	-0.0056857276
41	0x3d22ef00	0.03977871
42	0xbd0341ef	-0.0320453
43	0x3bfce443	0.0077176406
44	0xbca2151a	-0.019785453
45	0xbc836dfe	-0.01604366
46	0xbd0cc16a	-0.03436414
47	0x3c805ae1	0.015668334
48	0xbcce0f56	-0.025153797
49	0x3cc86f61	0.024467172
50	0xbb60db08	-0.003431024
51	0xbd1dee1b	-0.038557153
52	0xbd182301	-0.037142757
53	0x3cdc404e	0.026886132
54	0xbce5d892	-0.02805737
55	0xbc5b7904	-0.013395552
56	0xbd0d8d19	-0.03455839
57	0xbc49f16c	-0.012325626
58	0x3d292dca	0.041303433
59	0x3cea3ed1	0.028594406
60	0x3d16cf67	0.036818888
61	0xbcd62260	-0.026139438
62	0xbd1513d4	-0.036395863
63	0xbc897245	-0.01677812
64	0xbc716265	-0.014732932
65	0x3ca7552f	0.02042636
66	0x3d256579	0.040379975
67	0x3c009c30	0.007849738
68	0x3c824799	0.015903281
69	0xb87bb015	-6.0007053e-05
70	0xbc5ae2a2	-0.013359698
71	0xbce32c20	-0.027731001
72	0x3c9c6dde	0.019095358
73	0xbcc7c63c	-0.024386518
74	0x3d034653	0.03204949
75	0xbc5f2aad	-0.013621015
76	0xbc420f6f	-0.0118445
77	0x3d053182	0.032517917
78	0x3d24390d	0.04009347
79	0x3c524d86	0.012835866
80	0xbd0b9985	-0.034081955
81	0x3c127e06	0.008941179
82	0xb95ef531	-0.00021262911
83	0xbbb273b7	-0.005445923
84	0x3d1f9e96	0.0389696
85	0xbd1261df	-0.03573787
86	0xbcf52cee	-0.02992865
87	0x3b23352e	0.0024903524
88	0x3cd7050b	0.026247522
89	0x3cdfc057	0.027313394
90	0x3cb9dc38	0.022688016
91	0x3c641bf8	0.013922684
92	0xbccb4353	-0.024812376
93	0xbcd2c083	-0.025726562
94	0x3cc69d2a	0.024244864
95	0x3c780d67	0.015139914
96	0xbc94c03f	-0.018158076
97	0xbd0417ce	-0.032249264
98	0xbcbae48d	-0.02281406
99	0x3ab76aff	0.0013993679
100	0x3cd7ecc6	0.02635802
101	0x3d24424c	0.040102288
102	0xbc3ae313	-0.011406678
103	0x3ceb3d7b	0.02871584
104	0xbd1838bd	-0.037163485
105	0x3ca78e1d	0.020453507
106	0x3bf25ba0	0.0073961765
107	0xbcffad06	-0.031210434
108	0x3d1192dc	0.035540447
109	0x3c16059c	0.009156611
110	0xbc9aadce	-0.018881705
111	0x3c8a73c0	0.016900897
112	0x3cc4538b	0.023965618
113	0x3c81753a	0.015802968
114	0x3c9ad238	0.018899068
115	0xbce75a06	-0.028241169
116	0xbca63b70	-0.020292014
117	0x3d062e67	0.032759096
118	0xbc3bb6da	-0.011457169
119	0xbb76b945	-0.003764705
120	0xbb1e9621	-0.002419837
121	0x3c800218	0.015625998
122	0xbd11fdf2	-0.03564257
123	0x3cb755c4	0.022379763
124	0x3d203c07	0.039119747
125	0x3c45715c	0.012050953
126	0xbbabb648	-0.0052402355
127	0xbc858b9e	-0.016301926
128	0xba466887	-0.00075686764
129	0xba622dd2	-0.00086280436
130	0x3ce07979	0.027401673
131	0x3ccfed50	0.025381714
132	0xbb50b948	-0.0031848717
133	0x3b0965e7	0.002096528
134	0x393e5ec2	0.00018155112
135	0xbcfd8302	-0.030946258
136	0x3cbf45af	0.023348657
137	0xb9c18dbd	-0.00036917432
138	0x3c1b63b2	0.009484218
139	0xbb03b1c9	-0.0020094982
140	0xbb3e9c75	-0.0029084955
141	0x3d34de98	0.044157594
142	0x3d178c60	0.036999106
143	0x3cfb4a68	0.030675128
144	0x3cc276d8	0.02373831
145	0xbcd59e2d	-0.0260764
146	0x3c2ce2a8	0.010552086
147	0xbc5c55dd	-0.013448206
148	0x3c89702e	0.016777124
149	0x3ca81c14	0.020521201
150	0x3c964e3b	0.01834785
151	0xbc6dd7bd	-0.014516768
152	0xbc43da7b	-0.011953945
153	0x3ca42e25	0.020041535
154	0x3d0f90b8	0.035050124
155	0xbccf3454	-0.025293507
156	0x3d10a847	0.03531673
157	0xbd019522	-0.031636365
158	0x3d17d63d	0.037069548
159	0x3c0ce0fb	0.008598561
160	0xbbc13c3c	-0.005897073
161	0x3d103db4	0.035215095
162	0x3d1a7b21	0.03771508
163	0xbcdf0aae	-0.027226772
164	0xbca72812	-0.02040485
165	0x3c323157	0.010876021
166	0xbd092ef2	-0.033492036
167	0xbc9cdb3a	-0.019147504
168	0xbc9aca43	-0.018895274
169	0x3c9328e9	0.017963843
170	0x3c918c26	0.017767023
171	0xbd16fa21	-0.036859635
172	0x3d0a52a5	0.033770222
173	0x3c1a589e	0.009420542
174	0xbcce697f	-0.025196789
175	0xbd106fe8	-0.035262972
176	0x3bdcc096	0.006736825
177	0xbbada93c	-0.0052997153
178	0xbccedd23	-0.02525193
179	0xbbc4b28a	-0.006002729
180	0x3ceef25c	0.0291683
181	0xbd17e9c9	-0.03708819
182	0x3bc70cce	0.0060745245
183	0x3ce8e2a6	0.028428387
184	0xbc217ed6	-0.0098569
185	0x3c025705	0.007955317
186	0xbc83da6f	-0.016095368
187	0x3d080cb1	0.03321523
188	0xbd0c2552	-0.03421528
189	0xbca97dbb	-0.020689836
190	0xba144ec0	-0.00056574866
191	0xbc146d32	-0.009059237
192	0xbca763f2	-0.0204334
193	0xba7035aa	-0.000916327
194	0xbcc1b486	-0.02364565
195	0xbcb2ee7b	-0.021842232
196	0x3c90b912	0.017666373
197	0xbc63b0f2	-0.0138971675
198	0x3c553700	0.013013601
199	0xbcff8057	-0.031189127
200	0xbc4d498c	-0.012529742
201	0x3bfa772b	0.0076436005
202	0xbb4d41be	-0.0031319703
203	0xbb401eae	-0.0029315162
204	0x3a91038c	0.0011063679
205	0xbc615207	-0.013752467
206	0xbb9f4697	-0.00486071
207	0xbc975eac	-0.01847776
208	0x3cd99f1b	0.026565125
209	0xbd1c9b9f	-0.03823435
210	0x3cc25326	0.023721289
211	0x3d1ac4e4	0.037785426
212	0x3d298551	0.041386906
213	0xbbb7d0bf	-0.0056096013
214	0x3b251f8c	0.0025195805
215	0xbcd1f0a8	-0.02562745
216	0xbc443575	-0.011975636
217	0xbb7355e5	-0.0037130055
218	0x3d272f9c	0.04081689
219	0x3d1afc3c	0.037838206
220	0x3ca7cae3	0.020482486
221	0xbc6aa665	-0.014321898
222	0xbd1a91e2	-0.03773678
223	0xbc3ac5ac	-0.011399668
224	0x3d1672b0	0.03673047
225	0x3cad5ab4	0.021161415
226	0xb98329ef	-0.0002501751
227	0x3c05611c	0.008140828
228	0xbbe9ab77	-0.007131036
229	0xbd2072ce	-0.039171986
230	0x3c3ea331	0.011635588
231	0xbd09b4e0	-0.03361976
232	0x3c2aef40	0.010433018
233	0xbc647f69	-0.013946393
234	0xbd11b4e9	-0.03557292
235	0xbc93da7d	-0.01804852
236	0x3a937f25	0.0011253102
237	0x3d047861	0.032341365
238	0xbcbbc6c0	-0.02292192
239	0xbc505311	-0.012715117
240	0x3bd6b9bd	0.0065529034
241	0xbd0e5da0	-0.034757257
242	0xbc71d31b	-0.014759804
243	0xbc5e8c4b	-0.013583253
244	0xbd1cc671	-0.038275186
245	0x3d1d219c	0.03836213
246	0x3cb6dd20	0.022322237
247	0x3d050248	0.03247288
248	0x3d02fe20	0.031980634
249	0x3c604191	0.013687507
250	0xbc8c3f9f	-0.01712018
251	0x3d259d16	0.040433012
252	0x3ce1c8bc	0.027561538
253	0x3c946ff2	0.018119786
254	0x3c71fbfe	0.014769552
255	0x3d275968	0.04085675

fc1.weight f4 [2, 64]
0	0xbe212b7f	-0.15739249
1	0xbe21a739	-0.15786447
2	0x3e2b68cd	0.16739197
3	0x3b8bea9b	0.0042699105
4	0x3e383431	0.1798866
5	0x3e2f8914	0.17142135
6	0xbd6ec29c	-0.058291063
7	0xbda79f6f	-0.081847064
8	0x3c3324e9	0.010934093
9	0xbe1bbaed	-0.15208025
10	0x3d955b5b	0.07292815
11	0x3c1548f2	0.00911163
12	0x3df0bf6c	0.11755261
13	0x3da1f016	0.07907121
14	0xbd277b39	-0.040889
15	0x3e21627e	0.15760228
16	0xbdd74c8a	-0.105126455
17	0xbe2b8ff0	-0.16754127
18	0x3e0a46ba	0.13503543
19	0x3e0914b8	0.1338681
20	0x3e074ba9	0.13212456
21	0xbe02c715	-0.12771256
22	0x3cc87e58	0.024474308
23	0x3de5d6e5	0.112226285
24	0xbdbd1e2b	-0.0923427
25	0xbd6f91e8	-0.058488756
26	0xbe379f5a	-0.17931882
27	0xbd7b3a17	-0.061334696
28	0xb8734481	-5.7999514e-05
29	0xbe1ca816	-0.15298495
30	0xbcfe243e	-0.031023141
31	0x3d8f3df8	0.069942415
32	0xbd39b21a	-0.045335867
33	0xbdace0e5	-0.08441333
34	0xbe2c35b5	-0.16817363
35	0x3d09bb9e	0.03362619
36	0xbdf65f8b	-0.12029942
37	0xbe2fa783	-0.17153744
38	0x3c788b7e	0.015169976
39	0xbd0c0e75	-0.034193475
40	0x3e05404c	0.13012809
41	0xbd39e624	-0.045385495
42	0x3deb0bb6	0.11476843
43	0xbe089bf7	-0.13340746
44	0x3d80d796	0.0629112
45	0x3d9ebbd2	0.07750668
46	0xbd879401	-0.066200264
47	0xbd28bfa1	-0.041198377
48	0xbdb7fea4	-0.08984116
49	0x3e151ead	0.14562483
50	0xbd9c0e8d	-0.07619963
51	0xbdeb538e	-0.11490546
52	0x3e231a20	0.15927935
53	0x3e2bdb3d	0.16782852
54	0x3bb2e7d9	0.0054597673
55	0xbde522cc	-0.111882776
56	0x3cd2901f	0.025703488
57	0x3e1346ff	0.14382552
58	0xbcccaf39	-0.024985896
59	0x3b107d56	0.0022047362
60	0x3d3d3f61	0.04620302
61	0xbb628bac	-0.0034568114
62	0xbdd68623	-0.10474803
63	0xbe0e3b55	-0.13889821
64	0x3dd5d91f	0.10441803
65	0x3d7dad91	0.061933104
66	0xbda48fd1	-0.08035243
67	0x3d00ea3a	0.031473376
68	0xbe277b65	-0.16355665
69	0xbddb6ea5	-0.10714463
70	0xbdcffca2	-0.10155608
71	0xbaa46498	-0.0012542186
72	0xbe0b6038	-0.13610923
73	0x3ddb7b90	0.10716927
74	0xbd88e974	-0.06685153
75	0xbdbbecc4	-0.09176019
76	0x3d12bd8c	0.035825297
77	0xbd020c15	-0.031749804
78	0x3e0495da	0.12947789
79	0xbe03305f	-0.12811421
80	0xbd4205b1	-0.04736871
81	0x3da7036c	0.081549495
82	0xbc058124	-0.008148465
83	0x3cd020d9	0.025406288
84	0x3bcb5607	0.0062053236
85	0x3cf07c2d	0.029356087
86	0xbdf4ec0e	-0.11959086
87	0xbba17275	-0.0049269744
88	0xbdf9e8fa	-0.1220264
89	0x3db9a8ea	0.09065421
90	0x3dfead69	0.12435419
91	0x3d1ad3d5	0.037799675
92	0x3dca957b	0.098917924
93	0x3dca34e5	0.0987337
94	0xbd9e7563	-0.077372335
95	0xbccad8a7	-0.024761511
96	0x3e1577dc	0.14596504
97	0xbd71ce92	-0.05903489
98	0x3dd779a6	0.105212495
99	0xbb863d09	-0.0040966314
100	0xbdca2bca	-0.09871633
101	0x3e1d4f4a	0.15362278
102	0xbdc82c69	-0.097740956
103	0x3e1599fe	0.14609525
104	0x3bc654a3	0.00605257
105	0x3d6f07d5	0.05835708
106	0xbd9a4d0a	-0.07534225
107	0xbd79a3f9	-0.060947392
108	0xbe2508e6	-0.16116676
109	0xbd1ca262	-0.038240798
110	0xbd80d208	-0.0629006
111	0xbd1166d6	-0.035498463
112	0xbdc99e29	-0.0984462
113	0xbda5eca8	-0.08101779
114	0x3d864f35	0.06558076
115	0x3cd734af	0.026270239
116	0x3d14b8a0	0.036308885
117	0xbd957039	-0.072967954
118	0xbdfcd3c4	-0.123450786
119	0xb9cfa3f8	-0.00039604283
120	0x3e1aa1f5	0.15100844
121	0xbda03f04	-0.07824519
122	0x3de0bdd1	0.109737046
123	0x3cb534c4	0.022119887
124	0x3dff8766	0.12476997
125	0xbe123410	-0.14277673
126	0x3d6a134c	0.05714731
127	0xbd3f1ed3	-0.046660256

fc1.bias f4 [2]
0	0x3d2ad168	0.04170361
1	0x3dc545f0	0.0963248

fc2.weight f4 [64, 2304]
0	0xbbec5561	-0.0072123264
1	0xb98475e0	-0.00025264826
2	0x3c358967	0.011080123
3	0x3c79e66c	0.015252691
4	0xbc6e2610	-0.014535442
5	0x3c047952	0.008085566
6	0xbb43e28f	-0.0029889678
7	0x3c4bcf28	0.012439527
8	0x3a958c23	0.0011409562
9	0x3bb49c89	0.0055118245
10	0x3c98133d	0.018563861
11	0xbb518098	-0.0031967517
12	0xbc77599a	-0.015097046
13	0x3bedc264	0.007255839
14	0xbb361ccf	-0.0027788167
15	0x3c239241	0.0099836
16	0xbcb86cf3	-0.022512889
17	0xbc12dd95	-0.008963962
18	0xbb2efeed	-0.002670224
19	0xbc914a65	-0.01773567
20	0x3b52e005	0.0032176983
21	0xbbdc9fb0	-0.0067329034
22	0xbb8fff24	-0.004394429
23	0xbadc98c6	-0.0016830198
24	0x3c2590f2	0.010105358
25	0x3c5b97c8	0.013402887
26	0x3cc47b37	0.023984535
27	0x3c57a77e	0.013162492
28	0xbc1834fa	-0.009289974
29	0xbc4101a5	-0.011780177
30	0x3ca24b2a	0.019811232
31	0xbba197e7	-0.0049314382
32	0xbc6e9e95	-0.014564176
33	0xbc03f09c	-0.008052971
34	0xbc889a79	-0.01667522
35	0x3ca4275e	0.020038303
36	0xbc564540	-0.013078034
37	0x3bb663a0	0.0055660754
38	0x3c689541	0.014195741
39	0xbbe0e2bc	-0.0068629663
40	0x3c928803	0.017887121
41	0x3b9bb12c	0.004751345
42	0x3c81f938	0.015865907
43	0x3c14a71d	0.009073046
44	0x3afcaca6	0.0019277527
45	0xbc9f7bc7	-0.019468201
46	0x3bc4c376	0.006004746
47	0xbc7387dd	-0.014863935
48	0xbc1dbf18	-0.00962808
49	0xbc13a25e	-0.009010879
50	0x3c96ebb3	0.018422937
51	0xbc590f5d	-0.013248292
52	0xbc12e0ea	-0.0089647565
53	0xbc0697e9	-0.008214929
54	0xbc5acefc	-0.013355013
55	0xbbf7f976	-0.00756758
56	0x3c6adbc1	0.01433462
57	0x3c55b6d3	0.013044077
58	0xbc085140	-0.008320153
59	0x3c42c9cf	0.011888935
60	0xbc8d4a90	-0.017247468
61	0x3ca7e52e	0.020495024
62	0xbc285a9c	-0.010275509
63	0xbb19b67f	-0.0023454723
64	0x3ca9f9c4	0.02074898
65	0xbca51390	-0.02015093
66	0xbc297fdd	-0.010345426
67	0xbc642a2b	-0.013926069
68	0xbc638f30	-0.013889119
69	0xbbf6607a	-0.007518825
70	0x3c3efca7	0.011656917
71	0x3ae087c7	0.0017130309
72	0x3c6dd3aa	0.014515797
73	0xbc7c02a8	-0.015381493
74	0xbc00c49d	-0.007859376
75	0x3c379ddb	0.011207069
76	0x3be3b36b	0.0069488785
77	0xbc0152ed	-0.007893306
78	0x3c13b6d6	0.009015759
79	0x3c3a127c	0.011356946
80	0xbc0f4599	-0.008744621
81	0xbc40cb29	-0.011767187
82	0x3bb2d883	0.005457939
83	0xbc5895e3	-0.0132193295
84	0x3a0ab8ec	0.0005291838
85	0xbc66e3b4	-0.014092375
86	0xbb87f2a3	-0.0041487976
87	0xbc59d4d4	-0.013295371
88	0xbc1e2f54	-0.009654839
89	0x3c7e9a4e	0.015539719
90	0x3c9ec45e	0.019380745
91	0xbbd4555d	-0.0064799027
92	0x3c7bae05	0.015361314
93	0xbbe33370	-0.006933622
94	0x3c0c0e26	0.008548295
95	0x3c85328a	0.01625945
96	0xbbeca44b	-0.0072217337
97	0xbc92ab3e	-0.01790392
98	0x3cb7cc62	0.022436325
99	0x3c7f96d0	0.015599921
100	0xbaeae921	-0.0017922261
101	0xbc225356	-0.009907564
102	0x3c00e2e9	0.0078666
103	0x3c95b651	0.018275412
104	0xbc905263	-0.01761741
105	0x3c2519da	0.010076964
106	0x3b940a36	0.004517819
107	0x3c967b9a	0.018369485
108	0xbc078e61	-0.008273692
109	0x3b0471a9	0.0020209348
110	0xba906957	-0.0011017722
111	0x3c6c8e47	0.014438218
112	0x390bc244	0.00013328443
113	0xbb7d9c98	-0.0038698073
114	0x3bb15be5	0.005412566
115	0x3c8c9288	0.017159715
116	0xbc980f31	-0.018561931
117	0xbb861c8b	-0.004092758
118	0xbc97b217	-0.018517537
119	0x3b038414	0.0020067738
120	0xbbc3b47c	-0.005972443
121	0x3bcb6a1c	0.0062077176
122	0xbc6e7811	-0.014554993
123	0xbc4e8122	-0.01260403
124	0xbc61b882	-0.0137769
125	0x3c2fa951	0.0107215205
126	0x3c92265c	0.017840557
127	0xbc9ce4f9	-0.019152151
128	0x3c163a99	0.009169244
129	0x3bbb7c79	0.0057216254
130	0x3c0d2d50	0.00861676
131	0xbc7268b2	-0.014795469
132	0xbc3093c7	-0.01077742
133	0x3c01c2ad	0.0079199495
134	0x3aee9a32	0.0018203913
135	0xbbb5964f	-0.0055416
136	0x3c5cc5af	0.013474866
137	0xbc7105bf	-0.014710843
138	0xbc68fc8f	-0.014220371
139	0xbc95d955	-0.018292109
140	0x3c825ba8	0.015912846
141	0xbbe67d67	-0.007033992
142	0xbc12b309	-0.008953818
143	0xbc59f457	-0.013302884
144	0xbba38ffe	-0.0049915304
145	0x3c16c82d	0.009202999
146	0x3c01b07b	0.007915611
147	0xbc9c1331	-0.01905212
148	0x3c155551	0.009114579
149	0x3c6a8ad5	0.014315327
150	0xbc9688b1	-0.018375726
151	0xbc943706	-0.018092643
152	0xbc1a68aa	-0.009424368
153	0xbc04df52	-0.008109884
154	0x3bce7b55	0.0063013234
155	0xbc5f51ae	-0.013630314
156	0x3c17c8ec	0.009264212
157	0x3c395059	0.01131066
158	0xbbf9234e	-0.0076030856
159	0xbc0a187e	-0.008428691
160	0xbaf10459	-0.0018388137
161	0x3b6d3eb2	0.00362007
162	0x3b92174c	0.0044583436
163	0xbc5d16e5	-0.013494228
164	0xbab15c80	-0.0013531595
165	0x3c89629b	0.016770652
166	0xbc78c9e5	-0.015184854
167	0xbc8c3950	-0.017117172
168	0x3c9e6948	0.019337311
169	0xbc90155f	-0.017588316
170	0xbb02e62f	-0.0019973626
171	0x3a4cce8b	0.000781276
172	0xbc1dfaf1	-0.009642349
173	0xbb4c725c	-0.0031196093
174	0x3c83a579	0.016070114
175	0xbc8e01fb	-0.017334929
176	0xbc4f5a57	-0.012655816
177	0x3c5f7a6b	0.013640027
178	0x3c3b3cf7	0.011428109
179	0x3c820155	0.015869776
180	0xbb169f41	-0.0022983106
181	0x3c0e6bf4	0.00869273
182	0x3c84f86f	0.016231744
183	0x3b10f45d	0.0022118308
184	0x3c34d79d	0.011037734
185	0xbc221ad1	-0.009894089
186	0xbc92285e	-0.017841514
187	0xbbba3577	-0.005682643
188	0xbc69f274	-0.014278997
189	0xbc32368a	-0.010877261
190	0xbcb39907	-0.021923555
191	0x3b82881c	0.0039835107
192	0xbc593a62	-0.013258548
193	0xbcda7b7f	-0.026670216
194	0xbc2db744	-0.010602776
195	0xbcf8a864	-0.030353732
196	0xbc94ae63	-0.01814956
197	0xbb89b578	-0.004202541
198	0x3c0ed168	0.0087169185
199	0x3c080cf7	0.008303872
200	0x3c82a2fc	0.015946858
201	0x3b901c5c	0.004397912
202	0xbc4515c8	-0.012029119
203	0x3c84a3f0	0.016191453
204	0xbc968a31	-0.018376442
205	0x3c82f467	0.01598568
206	0x3cfc66b0	0.030810684
207	0x3c396bd6	0.011317214
208	0x3cbb4582	0.022860292
209	0x3aeae547	0.0017921113
210	0xbc55f06d	-0.01305781
211	0x3c8c0736	0.017093282
212	0x3bd42cad	0.0064750523
213	0xbba88642	-0.005142958
214	0x3bd1a221	0.006397501
215	0xbb191c45	-0.0023362797
216	0xb9cc8394	-0.00039007945
217	0x3c1860dc	0.009300437
218	0x3bb526c4	0.005528303
219	0xbc3e6df4	-0.011622895
220	0x3c757ed8	0.014983855
221	0x3c0a83be	0.008454261
222	0xbc7de7fc	-0.015497204
223	0x3c8b00ba	0.01696812
224	0xbbac683a	-0.005261448
225	0xbc96a97e	-0.018391367
226	0x3c334b17	0.010943196
227	0x3acfa832	0.0015842973
228	0x3bc89f17	0.0061224806
229	0xbc6efa29	-0.01458601
230	0xbbcac440	-0.0061879456
231	0xba38a65b	-0.0007043832
232	0xbc1f0731	-0.009706304
233	0xbc196ff5	-0.009365072
234	0x3c10ee69	0.008845904
235	0xbc276272	-0.010216342
236	0xbc3f78e0	-0.011686534
237	0xbc9f25f7	-0.019427283
238	0xbca4fca4	-0.02014
239	0xbc3223aa	-0.010872761
240	0x3c1247cb	0.00892825
241	0xbc3a7a5a	-0.01138171
242	0x3c8d5c1d	0.017255837
243	0xbc31bbd6	-0.010848006
244	0xbba1b801	-0.004935265
245	0x3c9bfcf8	0.019041523
246	0x3ba98a11	0.0051739295
247	0x3c98bc98	0.018644616
248	0xbb5669a9	-0.0032716787
249	0x3c91162f	0.017710773
250	0x3bafbc3f	0.005363017
251	0x3adb569b	0.0016734184
252	0xbc6aa572	-0.014321672
253	0xbc4f85ee	-0.012666209
254	0x3bc7fe3d	0.0061033056
255	0x3c6d3844	0.014478747

fc2.bias f4 [64]
0	0xbc04e92d	-0.008112234
1	0x3b2aca0c	0.002606037
2	0xbc38d33d	-0.011280832
3	0xbb18d59e	-0.0023320685
4	0x3ce8528f	0.02835968
5	0x3b89d7fe	0.0042066565
6	0xbc56801d	-0.013092068
7	0x3c24eca2	0.010066183
8	0xbc062ee6	-0.008189892
9	0xbc982dc8	-0.018576518
10	0xbba30a13	-0.004975566
11	0x3c48bf1e	0.012252597
12	0xbc4978f6	-0.012296906
13	0x3c29db35	0.010367204
14	0xbc760c38	-0.015017562
15	0x3ba52997	0.0050403583
16	0xbc0f4d99	-0.008746528
17	0xbcdbf35a	-0.026849438
18	0x3c83fd77	0.016112072
19	0x3c5b4d40	0.013385117
20	0x3a9d5415	0.0012003208
21	0x3c30efe0	0.010799378
22	0x3c690c45	0.014224117
23	0xbb45d7af	-0.0030188372
24	0x3c1ecb01	0.009691955
25	0x3c3fb7f5	0.011701574
26	0xbc893920	-0.016750872
27	0xbb1cd64f	-0.0023931449
28	0x3c6f1161	0.014591546
29	0xbc5b524b	-0.013386319
30	0xbc066e4a	-0.008205006
31	0xbb3bcad5	-0.0028654833
32	0xb7f39310	-2.9036339e-05
33	0x3c4ac8f5	0.012377013
34	0x3b1504b6	0.0022738404
35	0xbbc9e7b1	-0.006161653
36	0xbc9dc6c3	-0.019259816
37	0xbc93301b	-0.017967274
38	0xb9611d61	-0.00021468617
39	0xbcb2db19	-0.02183299
40	0x3caa338d	0.020776534
41	0xbcbbb53e	-0.022913571
42	0xbc483c99	-0.012221479
43	0xbbaac39d	-0.005211307
44	0x3c37ce3f	0.0112186065
45	0x3bba6729	0.005688567
46	0xbc2bc832	-0.010484742
47	0xba89da40	-0.0010517314
48	0x3c1184cc	0.008881759
49	0x3cac02e0	0.020997465
50	0x3bc37520	0.00596489
51	0xbbc68d8f	-0.0060593556
52	0xbc33d5c4	-0.010976259
53	0xba1d413b	-0.0005998795
54	0xba26e90a	-0.0006367123
55	0x3c6f49c1	0.014604987
56	0xbc9f282f	-0.01942834
57	0x3c4e8054	0.012603838
58	0xbbd1175b	-0.006380958
59	0x3c7d1929	0.015447893
60	0xbc189a32	-0.009314107
61	0xbc809b3b	-0.01569902
62	0x3b487d0c	0.0030592112
63	0xbcae1e42	-0.021254662
